model/MNIST/latest.pth (torch, 91125 bytes, 10 tensors)

conv1.weight f4 [16, 1, 3, 3]
0.5507972 0.6165465 -0.15361068 0.27370563 0.617014 0.37609503 0.6845788 0.5161075
0.7579102 0.20914991 -0.095173016 -0.12592249 -0.21888232 -0.12208259 -0.02179436 -0.15627028
-0.19354329 -0.1522419 0.06479654 0.14170846 -0.3890904 0.46779373 0.50071734 0.23851474
0.072846815 -0.16088937 0.3152849 -0.3317267 -0.3061412 0.4250129 0.15284772 0.011332273
0.39504677 0.00035431853 0.064478256 -0.296443 0.7146954 0.4175148 0.38167036 0.48554578
-0.012481793 0.3039121 -0.38274205 0.18827453 0.5064542 -0.04111767 -0.29934108 -0.03732273
-0.21119456 0.042868406 -0.21421278 -0.28176984 0.0895524 -0.23156123 -0.18889911 -0.14767167
0.31333473 0.10748807 0.3231728 -0.011489005 0.45560503 0.6250683 -0.14031157 0.11866101
-0.17381412 -0.3494295 0.02999456 -0.14304262 -0.27185026 0.3717292 0.35838503 0.46782014
0.080609754 0.53410095 0.19536348 0.25010526 0.35263893 0.4198957 -0.11422408 0.3611471
-0.12946425 -0.28286794 0.25447193 -0.037359286 0.13899632 -0.031412296 -0.18168624 0.01652516
0.03929074 0.10372618 0.076552376 0.13889128 0.05584893 0.13471538 0.14528024 0.07308049
0.45831352 0.38684386 0.3416633 -0.37108696 -0.24355228 0.47706482 -0.4076311 -0.18301348
0.56967866 0.08216973 0.34736982 0.4533769 -0.3089146 -0.008459173 -0.3265626 -0.0010856705
0.3235659 -0.25985792 0.037355788 -0.28040195 0.0726727 -0.1339836 0.18065912 0.73823255
-0.14492747 0.47002685 0.5858461 -0.07951844 0.3670592 -0.1063593 0.07662594 -0.11670063
0.38344336 0.19017577 0.0485958 0.28552163 -0.21400565 -0.35495186 0.12859376 -0.17865461
0.46906093 -0.13880749 0.46785402 -0.055859365 0.23943393 0.590475 0.03980627 0.1956367
00000000: 0c01 0d3f fed5 1d3f 1e4c 1dbe 2523 8c3e
00000010: a1f4 1d3f 878f c03e 8e40 2f3f 9f1f 043f
00000020: 6706 423f 652b 563e 12ea c2bd d3f1 00be
00000030: b022 60be 7006 fabd 168a b2bc 5105 20be
00000040: 3630 46be 4de5 1bbe 0cb4 843d 061c 113e
00000050: db36 c7be a982 ef3e 032f 003f 353d 743e
00000060: b630 953d 2fc0 24be 066d a13e 15d8 a9be
00000070: 8abe 9cbe 4a9b d93e 1d84 1c3e ffaa 393c
00000080: 9243 ca3e d4c3 b939 2d0d 843d 60c7 97be
00000090: 47f6 363f 80c4 d53e 4c6a c33e 7599 f83e
000000a0: 6f80 4cbc 5e9a 9b3e c4f6 c3be 0acb 403e
000000b0: fca6 013f 006b 28bd 3c43 99be b8df 18bd
000000c0: 6343 58be c896 2f3d 985a 5bbe 2344 90be
000000d0: 4067 b73d 631e 6dbe c56e 41be 3e37 17be
000000e0: 696d a03e b522 dc3d e876 a53e 613c 3cbc
000000f0: 1045 e93e 7a04 203f d6ad 0fbe 8b04 f33d
00000100: 54fc 31be 6ce8 b2be 27b7 f53c c479 12be
00000110: f52f 8bbe 4a53 be3e 3e7e b73e 1f86 ef3e
00000120: ba16 a53d d7ba 083f 5d0d 483e cc0d 803e
00000130: 178d b43e 92fc d63e 51ee e9bd 46e8 b83e
00000140: 4792 04be 11d4 90be 254a 823e 0d06 19bd
00000150: 0d55 0e3e 2eaa 00bd f50b 3abe c65f 873c
00000160: 54ef 203d 646e d43d 7ec7 9c3d 8439 0e3e
00000170: d9c1 643d d4f2 093e 58c4 143e 39ab 953d
00000180: 12a8 ea3e 6610 c63e 7eee ae3e 1cff bdbe
00000190: c565 79be d741 f43e 06b5 d0be e367 3bbe
000001a0: 76d6 113f 9a48 a83d 75da b13e 0421 e83e
000001b0: 0e2a 9ebe 5898 0abc 3733 a7be 0f4d 8eba
000001c0: 6eaa a53e 190c 85be 6202 193d d890 8fbe
000001d0: 6dd5 943d ff32 09be b4fe 383e cffc 3c3f
000001e0: de67 14be 5ca7 f03e 03fa 153f 90da a2bd
000001f0: 2fef bb3e e8d2 d9bd 10ee 9c3d bd00 efbd
00000200: b052 c43e 70bd 423e 640c 473d e42f 923e
00000210: 4c24 5bbe 40bc b5be 15ae 033e 3cf1 36be
00000220: c128 f03e 8d23 0ebe 908a ef3e cacc 64bd
00000230: 2b2e 753e 5f29 173f e60b 233d fd54 483e

conv1.bias f4 [16]
0.18165363 0.22617188 0.05575991 0.22757904 0.23782282 -0.15342908 0.2697049 0.0330177
0.18414338 -0.23105837 0.0022360557 0.28817633 -0.25754377 0.07578934 -0.16628589 0.010047031
00000000: 6903 3a3e 9a99 673e 8164 643d 7b0a 693e
00000010: d387 733e 831c 1dbe c316 8a3e 913d 073d
00000020: 1590 3c3e 919a 6cbe ca8a 123b d98b 933e
00000030: c7dc 83be 7137 9b3d d946 2abe 4d9c 243c

conv2.weight f4 [16, 16, 3, 3]
0.06963592 0.017851464 -0.032290973 -0.08692283 0.045417394 -0.06999381 0.039545175 0.084173836
-0.050970268 -0.083616465 0.06812966 -0.045514595 -0.0043890923 0.050903007 0.057051428 0.022486584
0.04542175 0.05150914 0.014024318 0.08816458 0.046383202 -0.03189451 0.021939036 -0.063205674
-0.0037049311 -0.053231828 -0.061833046 0.09510437 -0.031002631 0.0027546363 -0.027597602 0.083807044
-0.070644386 -0.038629185 -0.061529692 -0.058890283 0.014749779 0.06725199 -0.037557542 -0.05188925
0.07869735 -0.0014427702 -0.029087687 0.034064814 0.027351432 0.044720896 0.030191243 0.053660206
0.014122628 0.05297918 0.05848705 -0.061707795 0.045049436 0.047870718 -0.055659853 -0.020953849
0.010459674 -0.054271918 -0.0033115789 -0.09357472 -0.014618622 0.093177855 -0.023531394 0.0473411
0.010792415 -0.013118716 0.026327983 -0.06169523 -0.066382326 0.029348126 -0.03952431 0.086159974
0.09413311 0.023766322 0.062395368 -0.054464832 -0.02398023 -0.011531269 -0.025647355 0.04581705
-0.06319211 -0.061946984 0.009327374 -0.031493597 -0.062423393 -0.01226719 -0.060520403 -0.014777931
-0.050766967 0.0423528 -0.059299357 0.051054306 -0.08168554 -0.087779045 0.07611538 0.030747097
-0.03543647 0.11214094 0.038674954 0.07037302 -0.0489236 -0.0025303538 0.07320962 0.075804524
-0.06256452 0.08926224 0.021084605 0.037285894 0.009733996 -0.07589119 -0.037440117 -0.043565907
0.018615995 0.06265564 -0.029560957 0.04331029 0.043039463 0.07670045 0.0887345 -0.07193996
-0.030145828 -0.008142084 -0.073632665 0.10047801 -0.013366739 -0.03152877 -0.0075855665 -0.00081896636
-0.035070118 0.0575345 0.06818575 -0.020197717 0.04559153 0.019285709 0.061064567 0.0036773505
-0.029949896 0.047791086 -0.03560267 -0.067636155 -7.681837e-05 -0.060823284 0.03436571 -0.030631807
-0.0637621 0.044377264 0.029088205 -0.022265354 -0.11140752 -0.06526887 0.1011109 0.0028339115
0.08865272 -0.080654316 -0.0032569873 0.0396974 0.024794284 0.05086594 -0.02059658 0.026157342
-0.01690982 -0.028000675 0.08374137 0.03825473 0.019901201 -0.011269301 0.04985513 -0.09687757
0.010635947 0.030894961 0.1031853 -0.042548537 0.055364568 -0.0093657095 0.06599161 -0.05517969
-0.060996253 0.020663664 0.021376044 0.07451717 0.05770826 0.03465564 0.05073391 -0.0692748
0.011675199 -0.055640336 -0.011362903 0.036964126 0.023347234 -0.0333458 0.061588578 0.006764449
-0.010890223 0.07967106 -0.02837056 0.018211417 0.046290837 0.016185246 0.05570349 0.03811399
0.026075482 -0.031141356 -0.085406855 -0.06724257 0.08126309 -0.007571317 0.09741665 -0.048506718
0.04894051 -0.017970096 0.037437357 0.014244488 -0.07076241 0.07519212 0.099901065 -0.025889209
-0.018972952 0.0044240966 0.007821735 -2.6601076e-05 -0.09357391 -0.01934667 0.039246432 0.08686746
-0.011325773 -0.005406682 -0.036112096 0.03309029 3.1813473e-05 0.076695606 -0.014670046 -0.03329771
0.04672474 0.04457862 0.007260698 -0.012003763 0.05944001 0.0063677467 0.0006191709 -0.040915944
-0.0038370828 0.019905614 0.04552088 -0.056511853 0.01979473 -0.06611329 -0.09628111 0.018114895
-0.0955187 0.08420058 -0.056889493 0.038372014 -0.04326431 0.060580485 0.0774417 0.070102856
00000000: 479d 8e3d 3c3d 923c 8a43 04bd 9904 b2bd
00000010: 9707 3a3d ea58 8fbd 1ffa 213d 5563 ac3d
00000020: 33c6 50bd 1c3f abbd 9087 8b3d 836d 3abd
00000030: 60d2 8fbb ac7f 503d c2ae 693d c935 b83c
00000040: 280c 3a3d 3ffb 523d 41c6 653c a28f b43d
00000050: 50fc 3d3d d1a3 02bd 7eb9 b33c fa71 81bd
00000060: 6ece 72bb 9e09 5abd a644 7dbd 14c6 c23d
00000070: 3bf9 fdbc 2187 343b 5e14 e2bc 07a3 ab3d
00000080: 01ae 90bd a339 1ebd 8f06 7cbd f036 71bd
00000090: 0fa9 713c 69bb 893d f0d5 19bd d289 54bd
000000a0: 142c a13d 561b bdba 4d49 eebc 8c87 0b3d
000000b0: 1c10 e03c 422d 373d a053 f73c ceca 5b3d
000000c0: 9862 673c b200 593d 1e90 6f3d 50c1 7cbd
000000d0: c285 383d 1614 443d 96fb 63bd 68a7 abbc
000000e0: 0d5f 2b3c 3b4c 5ebd 1307 59bb 1aa4 bfbd
000000f0: f282 6fbc 08d4 be3d e9c4 c0bc bee8 413d
00000100: abd2 303c e2ef 56bc c8ad d73c 23b4 7cbd
00000110: 75f3 87bd 7b6b f03c 3ee4 21bd a474 b03d
00000120: dcc8 c03d 97b1 c23c 4992 7f3d 8416 5fbd
00000130: 3072 c4bc a6ed 3cbc 671a d2bc a9aa 3b3d
00000140: dd6a 81bd 1fbc 7dbd d8d1 183c 6eff 00bd
00000150: acaf 7fbd 53fc 48bc 3ee4 77bd 231f 72bc
00000160: 06f1 4fbd 217a 2d3d e2e3 72bd 521e 513d
00000170: c04a a7bd 80c5 b3bd 61e2 9b3d 56e1 fb3c
00000180: d525 11bd 26aa e53d a169 1e3d bb1f 903d
00000190: 1d64 48bd 4bd4 25bb edee 953d 673f 9b3d
000001a0: d421 80bd 1fcf b63d 9fb9 ac3c 18b9 183d
000001b0: 577b 1f3c d76c 9bbd cf5a 19bd 2a72 32bd
000001c0: 9280 983c 9a51 803d d229 f2bc 2166 313d
000001d0: 264a 303d 2015 9d3d 6fba b53d 4255 93bd
000001e0: 62f4 f6bc 6066 05bc b9cc 96bd 6ac7 cd3d
000001f0: 2b00 5bbc 5024 01bd 5890 f8bb e7af 56ba
00000200: afa5 0fbd 4ca9 6b3d f8a4 8b3d af75 a5bc
00000210: 2fbe 3a3d 10fd 9d3c d71e 7a3d b4ff 703b
00000220: 7c59 f5bc 96c0 433d 1bd4 11bd d384 8abd
00000230: 8c19 a1b8 d621 79bd 0fc3 0c3d 8eef fabc
00000240: b495 82bd efc4 353d 634a ee3c d565 b6bc
00000250: a029 e4bd afab 85bd 3b13 cf3d 25b9 393b
00000260: 8f8f b53d 172e a5bd 2e73 55bb be99 223d
00000270: 621d cb3c ce58 503d 29ba a8bc ec47 d63c
00000280: 7686 8abc ac61 e5bc 9880 ab3d feb0 1c3d
00000290: d807 a33c e0a2 38bc e534 4c3d bf67 c6bd
000002a0: 6542 2e3c 6e17 fd3c d152 d33d 6047 2ebd
000002b0: f5c5 623d a272 19bc 9c26 873d 1904 62bd
000002c0: 35d7 79bd d846 a93c d01c af3c 759c 983d
000002d0: 7f5f 6c3d 13f3 0d3d 5cce 4f3d f2df 8dbd
000002e0: 5549 3f3c 1fe7 63bd 782b 3abc b267 173d
000002f0: b342 bf3c 9b95 08bd 4e44 7c3d 50a8 dd3b
00000300: e86c 32bc 952a a33d 6069 e8bc 1c30 953c
00000310: 769b 3d3d ec96 843c 5829 643d 6a1d 1c3d
00000320: 409c d53c 281c ffbc cae9 aebd 79b6 89bd
00000330: 436d a63d cf18 f8bb 6182 c73d fbae 46bd
00000340: d875 483d 0636 93bc ea57 193d b761 693c
00000350: e2eb 90bd 54fe 993d ee98 cc3d 9b15 d4bc
00000360: 2a6d 9bbc 03f8 903b bc26 003c 6025 dfb7
00000370: aea3 bfbd e87c 9ebc dec0 203d 91e7 b13d
00000380: bc8f 39bc 892a b1bb 47ea 13bd af89 073d
00000390: 756f 0538 9612 9d3d a25a 70bc 2e63 08bd
000003a0: 7162 3f3d 1298 363d 26eb ed3b 6eab 44bc
000003b0: 5e77 733d 88a8 d03b db4f 223a 7a97 27bd
000003c0: 9177 7bbb 1911 a33c 1a74 3a3d f978 67bd
000003d0: 8f28 a23c 6866 87bd 082f c5bd b065 943c
000003e0: 4f9f c3bd 5b71 ac3d f504 69bd f92b 1d3d
000003f0: eb35 31bd 3e23 783d c199 9e3d 1692 8f3d

conv2.bias f4 [16]
0.05173065 0.030579425 0.022384474 0.0012259586 0.030743249 0.09298057 0.012037117 -0.0044484674
0.12080452 -0.040539935 0.009418147 0.11228565 -0.0072075734 0.0016976211 -0.08145988 0.07834722
00000000: 85e3 533d b481 fa3c a55f b73c 58b0 a03a
00000010: 44d9 fb3c 996c be3d 5437 453c 73c4 91bb
00000020: 5c68 f73d 340d 26bd 924e 1a3c 05f6 e53d
00000030: 822d ecbb b682 de3a 70d4 a6bd 8274 a03d

conv3.weight f4 [16, 16, 3, 3]
-0.004599715 0.069415934 0.08276393 0.08721594 -0.063106515 -0.047952365 0.04207629 -0.050382454
0.06694042 -0.06514741 -0.0037172255 0.065947436 -0.032464523 -0.022531388 -0.01464018 0.0842917
0.0011794721 0.016750364 -0.01719737 -0.0063296007 -0.010577776 -0.0039011224 0.0010300233 -0.0055042338
0.061513152 0.004688094 -0.069435045 0.008646991 -0.03438317 0.061815873 -0.039875668 0.061879598
0.11981402 0.034581754 -0.04818027 0.035031945 -0.045215 -0.10011208 0.021954004 -0.09788363
-0.098345175 0.121753685 0.06394413 0.00964133 -0.050647877 -0.13333246 0.27744597 0.06318137
-0.12637441 0.15140857 -0.09447552 -0.031633493 0.045898024 -0.032482706 -0.010496252 0.061445735
0.022578845 -0.07731921 0.04800346 0.07663619 -0.0046585654 0.032983124 0.017532038 -0.004249691
-0.13210373 0.0052579595 0.051172845 -0.014495762 -0.09754485 0.19207121 0.08863704 0.123250395
-0.12005934 0.08640321 -0.015833024 -0.019464776 0.05500707 -0.024700979 -0.007909844 -0.021889174
-0.05790007 -0.010159427 -0.02069451 0.08967192 0.032518286 -0.016848056 0.113440216 0.0954664
0.05697729 0.09063657 -0.030053595 0.10337436 -0.038875163 0.040242128 0.13271475 -0.033609923
0.05119499 0.032241996 0.043993585 -0.029722827 -0.07892749 0.1650687 -0.1655097 0.088940024
0.16347903 0.070566386 -0.08985321 -0.07814055 0.05660062 -0.00068199344 -0.04194876 -0.04899517
-0.063275926 -0.031246297 -0.019108012 0.033017766 0.045769155 0.025334861 0.05599485 -0.087363
0.064098604 -0.06026838 0.09181263 -0.048120737 -0.01303134 0.017575918 0.0015474813 -0.07212858
-0.01670197 0.023495967 0.046511285 -0.08046242 -0.037421867 0.03470052 0.03529706 -0.18382637
0.10104804 0.19537988 -0.17456938 0.09624464 0.099637896 0.044283237 0.036812793 0.0060459245
0.013770319 0.04434348 -0.05772356 -0.04163687 0.027978018 -0.024598308 -0.030961227 -0.09617507
0.007381832 -0.0045485543 -0.116626516 0.011323127 -0.095721886 0.03284436 0.02194146 0.010860372
0.034515444 -0.0051716925 -0.19464728 -0.0076550404 -0.10807661 -0.10841003 0.15760428 0.02981902
-0.024964401 -0.088433206 -0.16814859 -0.07182838 -0.062165327 0.01649663 -0.032762446 0.036075294
-0.057111356 0.07147835 0.06656815 0.10245854 -0.0637249 0.15753907 -0.060396984 0.15598223
0.12182521 -0.05052876 0.151 -0.0266138 0.036299065 0.14879966 -0.185172 -0.0053548776
0.09276218 -0.21387771 -0.008666507 0.03812202 0.025191974 0.05057805 -0.062324103 0.05714647
-0.025291232 0.055705976 0.05866587 -0.038592704 0.07000724 0.06594661 -0.082758375 0.09259953
0.03610766 -0.12923922 0.14092296 0.029295737 0.091797 0.019609373 -0.06349291 -0.09227544
0.056888755 -0.177165 -0.014001521 0.10932931 -0.09072298 -0.016829543 0.11593265 -0.021930492
-0.0457314 0.098399825 -0.03161953 -0.09782599 0.082512364 -0.013719414 -0.017008279 -0.06764779
0.004606529 -0.020904018 0.11592608 -0.0136274975 0.08722094 0.08095951 -0.06333174 -0.09702502
-0.038209226 0.07012653 -0.04641866 0.28126103 -0.025690936 -0.11690621 0.23054598 0.01550724
-0.19501941 0.15525892 0.17498554 0.06568964 0.0034718383 0.024901286 -0.062260177 -0.05910698
00000000: 35b9 96bb f129 8e3d 2380 a93d 459e b23d
00000010: fd3d 81bd b369 44bd 3058 2c3d d55d 4ebd
00000020: 0f18 893d 016c 85bd b29c 73bb 730f 873d
00000030: 85f9 04bd bf93 b8bc 5edd 6fbc 20a1 ac3d
00000040: 8498 9a3a 0f38 893c 80e1 8cbc 8a68 cfbb
00000050: 684e 2dbc f9a9 7fbb d901 873a dc5c b4bb
00000060: 37f5 7b3d 959e 993b f633 8ebd 1cac 0d3c
00000070: 5ed5 0cbd a432 7d3d ab54 23bd 7675 7d3d
00000080: 0e61 f53d 99a5 0d3d ad58 45bd a87d 0f3d
00000090: 5d33 39bd 9007 cdbd e2d8 b33c 3677 c8bd
000000a0: 3269 c9bd ff59 f93d 24f5 823d abf6 1d3c
000000b0: 2674 4fbd 4e88 08be 660d 8e3e 3c65 813d
000000c0: 4b68 01be d90a 1b3e 627c c1bd 1f92 01bd
000000d0: 91ff 3b3d 960c 05bd 79f8 2bbc 86ae 7b3d
000000e0: 45f7 b83c 8959 9ebd 479f 443d 6ff3 9c3d
000000f0: e1a6 98bb 5019 073d 599f 8f3c fe40 8bbb
00000100: 3346 07be f64a ac3b 9e9a 513d a27f 6dbc
00000110: 98c5 c7bd 51ae 443e 5687 b53d b46a fc3d
00000120: ace1 f5bd 2bf4 b03d 42b4 81bc 9874 9fbc
00000130: 184f 613d b559 cabc 4a98 01bc ed50 b3bc
00000140: a028 6dbd ba73 26bc 8887 a9bc e9a5 b73d
00000150: e531 053d ef04 8abc 5853 e83d e383 c33d
00000160: 0561 693d aa9f b93d f532 f6bc f0b5 d33d
00000170: 903b 1fbd eed4 243d 60e6 073e 8faa 09bd
00000180: d6b1 513d 2f10 043d 9e32 343d 497d f3bc
00000190: bca4 a1bd c507 293e 607b 29be 3026 b63d
000001a0: 0c67 273e 1c85 903d f604 b8bd 2708 a0bd
000001b0: 0dd6 673d cec7 32ba 77d2 2bbd 29af 48bd
000001c0: cf96 81bd 3cf8 ffbc 6888 9cbc a33d 073d
000001d0: 7078 3b3d 0e8b cf3c db5a 653d 5feb b2bd
000001e0: 2146 833d fadb 76bd 4308 bc3d 401a 45bd
000001f0: 6781 55bc 5ffb 8f3c dbd4 ca3a 26b8 93bd
00000200: 92d2 88bc 9d7a c03c 9e82 3e3d 7bc9 a4bd
00000210: ac47 19bd 2222 0e3d a693 103d fb3c 3cbe
00000220: 46f2 ce3d aa11 483e 51c2 32be e91b c53d
00000230: f40e cc3d 5762 353d 03c9 163d e41c c63b
00000240: e79c 613c 82a1 353d 8a6f 6cbd 6c8b 2abd
00000250: 2832 e53c 6482 c9bc 66a2 fdbc 6ff7 c4bd
00000260: 4ce3 f13b 0a0c 95bb e2d9 eebd a384 393c
00000270: d609 c4bd cf87 063d 94be b33c b4ef 313c
00000280: 1160 0d3d 4d77 a9bb 9e51 47be 22d7 fabb
00000290: 4557 ddbd 1406 debd 0463 213e 0447 f43c
000002a0: 2582 ccbc 781c b5bd 252f 2cbe c21a 93bd
000002b0: 12a1 7ebd f123 873c ea31 06bd b0c3 133d
000002c0: 99ed 69bd 3e63 923d e254 883d c8d5 d13d
000002d0: 3382 82bd ec51 213e d462 77bd ceb9 1f3e
000002e0: 7f7f f93d 3ff7 4ebd be9f 1a3e 2f05 dabc
000002f0: 54ae 143d f05e 183e bb9d 3dbe f877 afbb
00000300: 19fa bd3d c202 5bbe f7fd 0dbc d625 1c3d
00000310: 665f ce3c ee2a 4f3d 8f47 7fbd 6b12 6a3d
00000320: 8f2f cfbc f32b 643d a04b 703d 6213 1ebd
00000330: f55f 8f3d 040f 873d 397d a9bd d3a4 bd3d
00000340: a0e5 133d 4957 04be 1c4e 103e 9dfd ef3c
00000350: 1100 bc3d d6a3 a03c 9208 82bd e8fa bcbd
00000360: 2f04 693d be6a 35be a366 65bc 0ce8 df3d
00000370: f8cc b9bd 1cde 89bc 196e ed3d 93a7 b3bc
00000380: d950 3bbd d985 c93d 7b83 01bd fe58 c8bd
00000390: 3efc a83d 65c7 60bc f254 8bbc ed8a 8abd
000003a0: 5ef2 963b e73e abbc a76a ed3d de45 5fbc
000003b0: e4a0 b23d 19ce a53d 12b4 81bd 0eb5 c6bd
000003c0: 4781 1cbd 809e 8f3d 7e21 3ebd 7201 903e
000003d0: cc75 d2bc 866c efbd 3f14 6c3e 1412 7e3c
000003e0: 2bb3 47be 32fc 1e3e 692f 333e 4a88 863d
000003f0: c887 633b c8fd cb3c 8704 7fbd 291a 72bd

conv3.bias f4 [16]
-0.043678556 -0.107418165 -0.043633986 -0.07852464 -0.043600205 -0.073702276 0.018494438 -0.06623488
-0.08022765 -0.03822765 0.2213602 0.05918988 -0.032523703 -0.006041785 -0.09432352 -0.0031462722
00000000: 49e8 32bd 0efe dbbd 8db9 32bd 87d1 a0bd
00000010: 2196 32bd 38f1 96bd a681 973c 27a6 87bd
00000020: 654e a4bd 9994 1cbd 40ac 623e 1671 723d
00000030: 9337 05bd 2afa c5bb b12c c1bd b031 4ebb

fc1.weight f4 [64, 256]
0.031895038 0.015858257 -0.0500455 0.05445056 -0.028271249 0.15474592 0.06238296 -0.05101002
-0.056188326 0.011503195 -0.041006863 -0.06646343 0.037896354 -0.048029747 0.03361486 0.01590471
-0.026940389 0.03802944 -0.03653497 -0.05072144 -0.051973175 0.06824914 0.011532838 -0.08044391
-0.073144384 0.009540559 0.0485987 0.022790208 -0.046809636 0.035675976 -0.045456227 -0.0026832845
0.00038527697 -0.014090404 0.011046983 -0.005753249 -0.004790377 0.048350144 0.02685371 -0.055834197
-0.0011148943 -0.0015926389 -0.039053753 0.0085475 0.041880656 0.048599105 0.046011053 0.015359186
-0.0641423 -0.03894713 -0.018244341 -0.03786328 -0.032526676 -0.13702859 -0.053337753 0.07476653
0.058374994 -0.00076811295 0.052485205 0.038096435 0.039457023 -0.025226375 -0.02635342 -0.030572003
0.036731936 -0.029110434 0.058072694 -0.011728538 0.0035460433 -0.057185553 0.0036898025 -0.03903869
0.032062262 0.0066318656 -0.05322628 -0.071439974 -0.031106722 0.036554087 -0.041573483 0.039189782
-0.0015487329 -0.029969545 0.035300646 0.0047059804 0.07475647 0.03718863 0.04450705 0.052443758
0.060636643 -0.0021270013 -0.025329636 -0.019589847 0.02391841 0.010096628 0.020536685 0.056677066
0.053315286 -0.03034617 -0.009619807 0.063511744 -0.092852645 -0.13748828 -0.041261353 -0.022031052
-0.060663737 0.02989197 0.022775432 0.061117284 -0.015308535 0.030466538 -0.033638947 -0.024171252
-0.030090114 -0.07755673 -0.013119275 0.026792148 -0.035783812 0.090840064 -0.018402703 0.06739204
0.012424388 0.025001636 0.027051019 0.008806646 0.050405867 0.034781497 -0.054264046 -0.059587043
-0.018366046 -0.016186278 -0.1383864 0.0032106163 0.017890539 -0.06936353 -0.07925527 0.041169867
-0.05679482 0.024955103 0.048323482 -0.027842803 0.057206478 0.03226452 0.058940616 0.060239855
0.032029822 0.040507875 0.058894347 0.015904523 0.033788987 -0.043318257 0.046051003 -0.0245215
-0.0097266305 -0.019509383 0.04087665 -0.04124651 0.004410967 -0.002275169 -0.060348913 -0.008032158
-0.016630854 0.069822565 0.06551567 0.09252798 0.01741965 0.07739156 -0.083764374 0.07272707
-0.078699924 0.004608688 0.0056659477 0.026546562 -0.055876542 -0.054433715 -0.0048338445 -0.012267627
0.027283616 -0.005184746 0.13523963 0.036569927 0.021660557 0.13342921 -0.07921752 -0.10051513
-0.026484283 0.042197917 0.06306988 -0.014862012 0.015614494 0.085503444 -0.0203343 0.06367841
-0.03645166 -0.047030583 -0.04426665 0.032442182 -0.050246447 -0.025025714 0.062343433 -0.040542074
-0.026592173 -0.008950304 -0.034837045 0.03674101 -0.039112136 -0.015947318 -0.009891499 0.057272382
0.058834486 0.011022759 -0.030795678 0.0035403918 -0.031085756 0.04147172 0.032573026 -0.01318917
0.043558113 0.017727533 0.0037036322 0.016359955 -0.006012209 0.05719143 -0.020273855 0.0065837875
0.009757956 0.040511306 -0.05273307 -0.04383794 -0.058796335 0.0406838 -0.05239903 0.034175135
0.011303047 -0.00037295572 0.05965626 -0.023370566 0.016832205 0.016118074 -0.05013329 -0.054961223
0.0523409 0.021088656 0.08069678 -0.03671321 0.072564475 0.111652255 0.03998592 -0.0504912
-0.0067893895 0.0172909 0.016072372 -0.013795167 0.0202035 -0.048788473 -0.05762472 0.022848377
00000000: 5fa4 023d 2de9 813c 83fc 4cbd 8d07 5f3d
00000010: 1b99 e7bc b775 1e3e 4685 7f3d e2ef 50bd
00000020: bb25 66bd e677 3c3c d0f6 27bd fb1d 88bd
00000030: 3539 1b3d d7ba 44bd bcaf 093d 984a 823c
00000040: 17b2 dcbc c2c4 1b3d b1a5 15bd 49c1 4fbd
00000050: d3e1 54bd 35c6 8b3d 3bf4 3c3c c7bf a4bd
00000060: b9cc 95bd 0150 1c3c 6e0f 473d 88b2 ba3c
00000070: 76bb 3fbd f920 123d 4f30 3abd 0bda 2fbb
00000080: 00ff c939 70db 66bc 68fe 343c c085 bcbb
00000090: 98f8 9cbb cd0a 463d 50fc db3c 66b2 64bd
000000a0: a521 92ba 18c0 d0ba d4f6 1fbd d00a 0c3c
000000b0: 0d8b 2b3d db0f 473d 1676 3c3d 18a5 7b3c
000000c0: 0a5d 83bd 0787 1fbd 2875 95bc 8716 1bbd
000000d0: b13a 05bd 3951 0cbe b078 5abd 321f 993d
000000e0: 9e1a 6f3d 305b 49ba bafa 563d 020b 1c3d
000000f0: b09d 213d 8ba7 cebc 21e3 d7bc 2372 fabc
00000100: 3a74 163d 0179 eebc a2dd 6d3d 0e29 40bc
00000110: bc64 683b 663b 6abd 9dd0 713b 09e7 1fbd
00000120: b853 033d 1f50 d93b cd03 5abd 1f4f 92bd
00000130: 86d3 febc bdb9 153d f548 2abd 7785 203d
00000140: dafe caba b182 f5bc 6997 103d a034 9a3b
00000150: ec19 993d 1b53 183d 064d 363d 44cf 563d
00000160: 215e 783d 2965 0bbb 1980 cfbc e37a a0bc
00000170: 8bf0 c33c 546c 253c 8d3c a83c 3626 683d
00000180: 2161 5a3d 8898 f8bc 659c 1dbc 7212 823d
00000190: 8729 bebd bac9 0cbe aa01 29bd 777a b4bc
000001a0: 8a7a 78bd 01e0 f43c 8b93 ba3c 1e56 7a3d
000001b0: a6d0 7abc f694 f93c fec8 09bd ca02 c6bc
000001c0: 8b7f f6bc 10d6 9ebd 3af2 56bc 357b db3c
000001d0: 0c92 12bd 5b0a ba3d 44c1 96bc d604 8a3d
000001e0: a98f 4b3c 3bd0 cc3c 199a dd3c c049 103c
000001f0: 6276 4e3d 0b77 0e3d fa43 5ebd 8b11 74bd
00000200: 6474 96bc 1699 84bc 2ab5 0dbe 3469 523b
00000210: 2e8f 923c 770e 8ebd 9650 a2bd bca1 283d
00000220: afa1 68bd a56e cc3c d8ee 453d 9716 e4bc
00000230: 5751 6a3d cd27 043d b76b 713d 11be 763d
00000240: b431 033d 96eb 253d 333b 713d 344a 823c
00000250: 5266 0a3d 7c6e 31bd fa9f 3c3d 50e1 c8bc
00000260: 725c 1fbc 24d2 9fbc 466e 273d 1af2 28bd
00000270: e089 903b 001b 15bb 6c30 77bd 5099 03bc
00000280: 6e3d 88bc 22ff 8e3d 142d 863d 4f7f bd3d
00000290: a7b3 8e3c 777f 9e3d a88c abbd eef1 943d
000002a0: 6d2d a1bd 7a04 973b 6aa9 b93b 2d78 d93c
000002b0: cdde 64bd e3f5 5ebd 3a65 9ebb 28fe 48bc
000002c0: e481 df3c cde4 a9bb 427c 0a3e 59ca 153d
000002d0: 7b71 b13c aba1 083e cc3c a2bd e0da cdbd
000002e0: 91f5 d8bc b9d7 2c3d c82a 813d cc7f 73bc
000002f0: efd3 7f3c 6e1c af3d 1e94 a6bc d469 823d
00000300: 564e 15bd 24a3 40bd f250 35bd 18e2 043d
00000310: 38cf 4dbd ba02 cdbc d45b 7f3d 720f 26bd
00000320: d4d7 d9bc 4ca4 12bc 4ab1 0ebd be7d 163d
00000330: 0c34 20bd f3a3 82bc f40f 22bc 7296 6a3d
00000340: 6efc 703d cd98 343c 3847 fcbc eb05 683b
00000350: 8ea7 febc 40de 293d 4b6b 053d 6317 58bc
00000360: fe69 323d 5539 913c a3b8 723b 5005 863c
00000370: 1102 c5bb 9041 6a3d 5b15 a6bc d0bc d73b
00000380: d5df 1f3c 2fef 253d a2fe 57bd 698f 33bd
00000390: 6dd4 70bd 0ea4 263d 5ea0 56bd 3afb 0b3d
000003a0: 6a30 393c 4589 c3b9 1f5a 743d a173 bfbc
000003b0: b1e3 893c 0d0a 843c 9158 4dbd 051f 61bd
000003c0: 6963 563d 1ec2 ac3c 5a44 a53d 9760 16bd
000003d0: af9c 943d f0a9 e43d 47c8 233d dccf 4ebd
000003e0: 8779 debb a5a5 8d3c 35aa 833c 2005 62bc
000003f0: cf81 a53c 6cd6 47bd e607 6cbd 852c bb3c

fc1.bias f4 [64]
-0.02557317 -0.039348077 -0.004622471 -0.014809963 -0.02027264 0.042521983 -0.09016958 -0.056430746
-0.013098297 -0.0022690454 0.059174646 0.056745335 0.097385354 -0.0037597206 0.011009937 -0.050488632
0.032535575 -0.052618727 0.024774069 0.04369935 -0.08827384 0.059016466 -0.03340306 -0.036832392
-0.05634498 0.035555284 0.026691683 0.09422946 -0.061849494 -0.0076868855 -0.012305391 -0.005412713
0.06271819 0.06863724 -0.012614641 -0.063348114 0.07190733 -0.083803944 0.030096652 -0.06535484
-0.022704696 0.030256217 -0.002474618 -0.035763185 0.06202761 0.05116446 -0.011460063 0.05921395
0.0024236643 -0.029036438 -0.047127828 -0.048233863 -0.055171687 0.041386135 0.014621104 0.042655908
0.049921 0.048256647 0.07745871 -0.032930978 0.08562477 0.044691667 -0.026048372 0.027558774
00000000: d37e d1bc 732b 21bd 1978 97bb 7da5 72bc
00000010: cf12 a6bc 882b 2e3d d4aa b8bd ed23 67bd
00000020: 3d9a 56bc 44b4 14bb 1d61 723d cc6d 683d
00000030: f971 c73d a565 76bb 0663 343c 2bcd 4ebd
00000040: 0644 053d bc86 57bd fdf2 ca3c 17fe 323d
00000050: eac8 b4bd 40bb 713d a6d1 08bd 90dd 16bd
00000060: fec9 66bd 6ba2 113d 84a8 da3c 60fb c03d
00000070: e555 7dbd 45e2 fbbb 8d9c 49bc 215d b1bb
00000080: 6572 803d ae91 8c3d a4ad 4ebc a8bc 81bd
00000090: 2644 933d 67a1 abbd 418d f63c c2d8 85bd
000000a0: 33ff b9bc e3db f73c 332d 22bb 6b7c 12bd
000000b0: aa10 7e3d d391 513d fdc2 3bbc 548a 723d
000000c0: 57d6 1e3b d3dd edbc 1c09 41bd df90 45bd
000000d0: b5fb 61bd 8284 293d 5b8d 6f3c f6b7 2e3d
000000e0: f679 4c3d c3a8 453d aca2 9e3d a2e2 06bd
000000f0: 0a5c af3d 9c0e 373d 6563 d5bc f0c2 e13c

fc2.weight f4 [10, 64]
-0.045919135 0.23636182 0.15440221 -0.22714894 -0.048005816 -0.07465449 -0.24112208 -0.14232638
-0.056966558 0.18355024 -0.14778683 0.01249468 -0.34913254 0.08511517 0.1245167 -0.02579142
0.049998302 0.022566358 0.1145512 -0.17446321 0.05784704 -0.2626962 -0.11428797 0.12475817
0.1934029 -0.2614349 -0.1217949 -0.18137203 0.20993924 0.031043349 -0.13072407 -0.044912376
-0.028458044 0.021820743 -0.14903408 0.21250995 0.16630442 0.17807174 -0.1764578 0.03539278
0.08851762 0.027292596 -0.045004908 0.16185097 -0.16243255 -0.105275854 -0.023781657 0.16284049
0.0118998885 -0.171862 0.29338524 -0.030918622 -0.1270325 -0.05499207 -0.08199001 -0.11987573
-0.041458637 0.10899863 -0.028363831 0.0034105387 -0.061832592 0.19068289 -0.15537933 -0.07176303
0.067191795 -0.21826671 -0.3097113 -0.2679669 0.10245144 0.053189494 0.10265409 -0.0730429
-0.08202941 0.17115128 -0.10334605 0.15303487 -0.13212241 0.017584104 0.0861795 0.03664484
0.12040971 0.13011032 0.059853587 -0.09305757 0.02495334 -0.063311934 0.065561675 0.060411133
0.08318468 0.062081687 0.0014997253 0.09784458 -0.102165975 0.2119133 -0.015642826 0.09872643
0.12616235 -0.08199811 -0.14927514 0.23245637 -0.0025782944 0.009540473 -0.20074335 0.0076030237
0.17608997 0.014602734 -0.2206708 -0.21677421 0.09307002 0.011033487 -0.05106161 -0.053350788
0.16999763 -0.0035153767 -0.12234063 -0.14305836 -0.074429825 0.18598312 -0.034551486 0.260905
0.15362877 -0.020319851 0.18703605 -0.11331087 -0.0427749 -0.050807644 -0.08320241 0.19385128
-0.18144326 -0.23488368 -0.19400078 -0.038437217 0.19177456 0.09700225 0.02431587 -0.02487021
0.11060092 0.025884727 -0.0068545975 -0.1626685 -0.2738411 -0.0943986 0.22123325 0.107461914
-0.091805376 0.14996566 -0.22222635 0.06678784 0.21518725 -0.2004745 0.019785803 0.025175726
-0.06723265 0.028366353 0.03337563 -0.19907899 0.16190398 -0.0035913463 0.1486412 0.1781426
-0.073776014 -0.010423266 -0.007295337 -0.027784454 0.08690062 0.014075891 -0.15662469 0.2094704
-0.14394866 0.12700854 0.056227583 0.05042921 0.06458893 -0.040477958 0.03327076 -0.06315982
0.04949489 -0.14930658 0.21585828 -0.026426269 0.17034489 -0.15841834 -0.22017403 -0.072035104
-0.007331854 -0.14061055 -0.2218163 -0.1960785 0.12221043 -0.04887721 0.13159731 0.05274427
-0.25745782 -0.13003466 -0.14632162 -0.046150036 -0.11288492 0.092623204 0.00052084564 0.23453945
-0.061833814 0.22021563 -0.23414725 0.20619905 0.17701627 0.14189644 -0.113951094 0.13661145
-0.15903898 -0.099515766 0.13248727 -0.04270958 -0.16552193 0.02391192 -0.23076755 0.10417557
0.03169266 -0.0020682504 0.23755127 0.14199473 0.014829759 0.17768194 -0.06708813 -0.0763459
-0.116476394 -0.2614147 -0.057868205 0.18803433 0.0035179812 0.23086068 0.08072454 0.13454396
-0.03813113 0.017656619 0.1423916 0.14598434 -0.040228486 0.10908886 0.091365494 -0.14053124
0.15791886 -0.05807578 -0.09047929 -0.25740242 -0.02540089 -0.12298463 0.21216229 0.014320957
-0.16192222 0.06474696 -0.22668862 0.01957597 -0.10816005 -0.007247437 0.12736303 -0.07792451
00000000: b415 3cbd d508 723e 9d1b 1e3e bb99 68be
00000010: bfa1 44bd 74e4 98bd b5e8 76be 02be 11be
00000020: c455 69bd 98f4 3b3e 6e55 17be 7cb6 4c3c
00000030: 80c1 b2be dd50 ae3d 9d02 ff3d 8748 d3bc
00000040: 05cb 4c3d 15dd b83c d299 ea3d 7ca6 32be
00000050: 05f1 6c3d 1e80 86be d00f eabd 3681 ff3d
00000060: 690b 463e ccda 85be 9b6f f9bd 97b9 39be
00000070: 50fa 563e 9f4e fe3c 88dc 05be 0af6 37bd
00000080: d820 e9bc 6ac1 b23c 649c 18be 359c 593e
00000090: b54b 2a3e 7058 363e 5bb1 34be 05f8 103d
000000a0: ba48 b53d b994 df3c 1157 38bd 43bc 253e
000000b0: b854 26be de9a d7bd c0d1 c2bc a8bf 263e
000000c0: c0f7 423c 98fc 2fbe 9736 963e 0d49 fdbc
000000d0: cf14 02be 5d3f 61bd 61ea a7bd 6881 f5bd
000000e0: 88d0 29bd ac3a df3d 445b e8bc 5883 5f3b
000000f0: 2c44 7dbd 6042 433e c21b 1fbe 7ff8 92bd
00000100: da9b 893d 4f81 5fbe 7b92 9ebe f532 89be
00000110: 10d2 d13d 3add 593d 4f3c d23d 8497 95bd
00000120: 09ff a7bd 4842 2f3e 18a7 d3bd 2cb5 1c3e
00000130: 194b 07be 8a0c 903c e17e b03d e618 163d
00000140: 5e99 f63d a43b 053e 0929 753d f894 bebd
00000150: f26a cc3c b0a9 81bd 3345 863d aa71 773d
00000160: bb5c aa3d 5e49 7e3d 6e92 c43a bd62 c83d
00000170: 653c d1bd cdff 583e 6225 80bc 1531 ca3d
00000180: b430 013e a0ee a7bd 95db 18be 0b09 6e3e
00000190: 9af8 28bb a54f 1c3c aa8f 4dbe c922 f93b
000001a0: ee50 343e 4e40 6f3c 87f7 61be 0ffa 5dbe
000001b0: 7f9b be3d ccc5 343c fb25 51bd 5b86 5abd
000001c0: dc13 2e3e 3c62 66bb b98d fabd e47d 12be
000001d0: aa6e 98bd 5c72 3e3e dc85 0dbd 5795 853e
000001e0: dc50 1d3e d175 a6bc 6186 3f3e 880f e8bd
000001f0: bc34 2fbd ad1b 50bd 0666 aabd f380 463e
00000200: 43cc 39be 5985 70be 24a8 46be 5870 1dbd
00000210: 8d60 443e 1ea9 c63d 1332 c73c 9cbc cbbc
00000220: bc82 e23d 350c d43c 889c e0bb 9292 26be
00000230: e734 8cbe 0e54 c1bd f88a 623e fe14 dc3d
00000240: 7504 bcbd 9990 193e 4e8f 63be 10c8 883d
00000250: 0c5a 5c3e 3049 4dbe d615 a23c 533d ce3c
00000260: 46b1 89bd 8e60 e83c e2b4 083d 5ddb 4bbe
00000270: 28ca 253e cb5c 6bbb 6635 183e 046b 363e
00000280: e117 97bd 59c6 2abc b90d efbb 399c e3bc
00000290: f4f8 b13d 919e 663c 3962 20be 697f 563e
000002a0: 4767 13be 870e 023e e54e 663d dc8e 4e3d
000002b0: 3347 843d 37cc 25bd ec46 083d f059 81bd
000002c0: 27bb 4a3d d3e3 18be f409 5d3e e77b d8bc
000002d0: e46e 2e3e 6b38 22be 4d75 61be 2487 93bd
000002e0: 0d40 f0bb 36fc 0fbe d023 63be cdc8 48be
000002f0: 7649 fa3d 7833 48bd 72c1 063e 600a 583d
00000300: 83d1 83be ce27 05be 56d5 15be d207 3dbd
00000310: 3530 e7bd 3cb1 bd3d 5c89 083a 1c2b 703e
00000320: 7445 7dbd 3580 613e 4cc4 6fbe d825 533e
00000330: c143 353e 4d4d 113e 315f e9bd dfe3 0b3e
00000340: 1ddb 22be ecce cbbd beaa 073e 3ef0 2ebd
00000350: 957e 29be eee2 c33c 544e 6cbe 005a d53d
00000360: 2ad0 013d 7c8b 07bb a440 733e 1167 113e
00000370: 84f8 723c 41f2 353e 8065 89bd 3d5b 9cbd
00000380: 2d8b eebd 26d8 85be 3607 6dbd 128c 403e
00000390: ee8d 663b be66 6c3e e852 a53d e4c5 093e
000003a0: 632f 1cbd 9da4 903c 1bcf 113e eb7c 153e
000003b0: a0c6 24bd fb69 df3d d51d bb3d 6ce7 0fbe
000003c0: 7bb5 213e dee0 6dbd 354d b9bd 40ca 83be
000003d0: 8715 d0bc 5edf fbbd 1241 593e 72a2 6a3c
000003e0: f0ce 25be 0e9a 843d 1021 68be c95d a03c
000003f0: 0483 ddbd e87b edbb 746b 023e e396 9fbd

fc2.bias f4 [10]
-0.051102526 -0.047937006 -0.057244595 -0.16782238 -0.061297685 -0.07883339 -0.1274397 -0.17795251
-0.10389424 0.00012898813
00000000: e250 51bd 9859 44bd 4f79 6abd a1d9 2bbe
00000010: 4813 7bbd 6673 a1bd 8d7f 02be 2f39 36be
00000020: 81c6 d4bd fd40 0739
